gnn_model.pth (torch, 35744 bytes, 4 tensors)

conv1.bias f4 [64]
00000000: 130d 70bd 8440 34bc aaca 023d aa1d 48bd
00000010: b382 07bd ced3 63bd 84e7 36bd 7321 9abd
00000020: 25b3 8bbd 2b59 8abd 074a ca3c ba30 60bd
00000030: 803c 1bbd 801d d3bd c64f 84bc 75e3 eabc
00000040: ffa6 94bd d0d4 82bd 39c4 93bd 5dd3 173d
00000050: 7f91 3bbc 4a76 86bd c2ad 353c 392a 88bd
00000060: 1e7a 8f3c e41e 84bd 522c b4bb d2a8 8bbd
00000070: a083 7fbd eb25 44bd 7e62 3dbb 0080 bebd
00000080: 98a9 d63c e437 16bd c6db 5bbd 5180 98bd
00000090: 4da1 8fbc 96b5 8cbd 405c c4bb c723 cfbc
000000a0: 4575 39bd 2f9d 8fbd 36e1 0ebd 1bf1 a9bd
000000b0: b8ee 37bd a789 923c 88b2 17bd 70f9 65b9
000000c0: 5307 81bd cbda febc 6a05 24bd 87db 8cbd
000000d0: a90f 9cbd 160c a7bd 7794 acbc 641a 08bd
000000e0: 0db7 79bd 01b7 debc 3321 3bbd 09cd dbbc
000000f0: 414b 81bd 21e4 07bd eb49 88bc 633c b7bd
-0.05860622 -0.01100171 0.031931557 -0.048856415 -0.03308363 -0.055621915 -0.044654384 -0.07525911
-0.068212785 -0.06755289 0.024693502 -0.05473397 -0.037899494 -0.10308361 -0.01615132 -0.028672913
-0.072584145 -0.06388247 -0.07215161 0.037066806 -0.011448263 -0.065655306 0.01108879 -0.06648678
0.017514285 -0.064512044 -0.0054984475 -0.06819309 -0.062381387 -0.047887724 -0.0028897817 -0.09301758
0.026203915 -0.036674395 -0.05367639 -0.074463494 -0.017532969 -0.06870572 -0.0059924424 -0.025285615
-0.045277853 -0.07012402 -0.034882747 -0.0829794 -0.044905394 0.017887903 -0.037035495 -0.00021932065
-0.06300225 -0.031110188 -0.040044226 -0.06877809 -0.076201744 -0.08156602 -0.021066887 -0.033228293
-0.060965586 -0.027186872 -0.045685958 -0.026831167 -0.06313182 -0.033176545 -0.01663681 -0.08947065

conv1.lin.weight f4 [64, 128]
00000000: e7f1 1bbe e010 113e 8c38 633d 068f 2ebd
00000010: f6c2 0a3e 1758 35be e6c5 49bd dd7d e03d
00000020: 86c5 943e 3de7 f93d 25de f5bd c50a f5bd
00000030: 553b 93bd e642 0c3b 689f 483e 880a 313e
00000040: a564 b53d 4091 81be 6b55 303d 28ca e93d
00000050: 59b2 86bd 48d1 b4bc 0243 48bb 882e 853d
00000060: ec53 fcbb c80d b83d 10b7 073e e129 5a3c
00000070: 1011 d93b 346d a1bd c86f 233d 467d 0f3e
00000080: cb4b 89be 771b 01be 335e 603e 9db2 c23d
00000090: c724 1cbe 602e d8bd c9b3 14be f59a 75bd
000000a0: e1d5 63be dc38 e23d 2aa5 643e 34ac 56be
000000b0: ef1b a7bc 5f1a 01bd 46b8 d9bc fb3c 493d
000000c0: ea23 47be d694 d5bd 8a18 94bd d1a4 bbbb
000000d0: d973 2fbe f6cd b0bc 8d50 40bd 2a68 65bd
000000e0: b424 13be fca3 8cbd 13ad 9f3d cb89 cfbc
000000f0: 9ab6 1a3e 52ad e1bb 94ce 2e3d de11 9dbd
00000100: c5b4 3abe 0424 70bd 4d90 0c3d bdf3 1a3e
00000110: 8c09 b4bd 8626 3e3d aead 33be b05d 803e
00000120: 80d7 87bc 2bc9 38bd 3927 6dbd b2dc 493e
00000130: 5b78 843d 3ccb 553c 3d07 7bbe 95d2 d2bd
00000140: ad83 5dbb 8aa3 283d 5548 7b3d 8b40 96bd
00000150: a99a 1a3e 70db 093d 38bc 8abc 7dd7 8a3e
00000160: 5766 023d 3db1 d1bb 24ef 073e 0076 e4bd
00000170: 3f51 5dbd 6c21 e23d 3d26 313e 3919 96bd
00000180: a8b4 9ebc 38c4 7c3c 046b ddbd cb69 0dbe
00000190: 5dae ca3c c39a 583d 7e0b fb3d d6c1 563e
000001a0: 4ad6 353e 7147 b5bd 3319 ccbd 3df6 d23d
000001b0: b74c 13be c5fd 4f3d 951b 2ebe 1637 923d
000001c0: ee36 fbbc 72a7 efbd 1a6a 1dbe b1c4 563e
000001d0: 7e2d a1be 76bf 1d3e 3c09 19be b00f da3c
000001e0: 1d0d dcbd 5255 8e3d 629b 2bbd 3254 2fbd
000001f0: 6cd9 c23d 9256 d5bb e262 d4bd 243f b3bd
00000200: 297b 57bd 2ae9 123d d561 f8bc 5c5f 793e
00000210: fb66 98be 3cbd 723e abb2 54be cd66 45be
00000220: 293f 6e3c f34d 05be a64f a43e 6f30 bebd
00000230: 80ee 02bd cf30 4bbe 6cc6 89bd c267 a9bd
00000240: a64a bd3d d94e ca3d d722 a33d 0b4b af3d
00000250: 26b5 2fbe 2b33 81bd d633 22bd 436b 07be
00000260: 9c95 fe3d aad8 41be b0c5 ef3c 8059 68be
00000270: f57e 16be b9fc 75be bb51 c2bd d93c 1fbe
00000280: 9152 373e d240 563e 052d 553e dcd0 d2bd
00000290: e742 3f3c e297 85bd ed48 3bbe 6713 88bc
000002a0: 3e23 493e 4cb0 923e 8f58 15be f44f 9ebd
000002b0: b20f c03d cc83 d5be 0c2d d7bc 437b d5bd
000002c0: be9f 013c 9348 4c3d e203 3e3e c840 01be
000002d0: 219e d8bd 2afd 903c 5606 d63d 31ea 15be
000002e0: fa9d 8fbc f590 1dbe 968f 7b3d e7b4 ae3e
000002f0: cfc4 81bd 1a2a 1ebe 0b3e 9b3d f7c5 163e
00000300: ea29 2fbb 17bd 78be 9e4d 553e 3242 8cbc
00000310: 817e 373e 34ef 5fbe d718 b0bd 2959 31bc
00000320: a034 07bd 530b 753d e61c 18bd c067 4e3e
00000330: b155 b0bc 58cc 0bbe 2a1f 783d f1f5 a2bd
00000340: 0c99 4a3e f557 cebd 9b01 6cbd f6f6 5f3e
00000350: 6a08 463d 3579 373c cbab 063e 3fdc 2d3c
00000360: c1d4 f73d e34c 193d 911f 8d3d cf22 cfbc
00000370: 029e c73a b439 813c da46 dd3d 0e1f 92bb
00000380: 6194 4b3d f54f 6f3e 1956 fabd d6fa 213e
00000390: 4d5d 61be 1bc3 4a3e 555a cdbd 3450 20be
000003a0: f108 003d 8c6e 273e 06bb dc3b 24f0 acbe
000003b0: 26f6 bf3e 4c7c 463e 2b01 603e 86b3 1ebe
000003c0: 61ba 9dbd bb12 6a3d 89bf c73d 7074 e2bc
000003d0: ccf6 d4bd f4c4 703d 5c08 183e 3d0e 51bd
000003e0: 3369 973d ac0b 5e3d b6e6 653e 2404 96bd
000003f0: d3e7 81bd 4ee2 d5bd eebe 003e ffce c93a
-0.15228997 0.14166594 0.05547385 -0.042616867 0.13550934 -0.17709385 -0.049260996 0.109615065
0.29056948 0.12202308 -0.12005261 -0.11964945 -0.07189051 0.002140218 0.19592059 0.17289174
0.08857087 -0.2530613 0.04305021 0.11415511 -0.06576986 -0.02207245 -0.0030557518 0.06503016
-0.007700434 0.089870036 0.13253427 0.013315649 0.0066243485 -0.07882157 0.039901525 0.14012632
-0.26815638 -0.12608133 0.21910934 0.09506724 -0.15248404 -0.1055572 -0.14521708 -0.05996223
-0.22249557 0.11046001 0.2232863 -0.20964128 -0.020399062 -0.03151929 -0.026577126 0.04913042
-0.19447294 -0.10428779 -0.07231243 -0.0057264348 -0.17134036 -0.021582585 -0.04695182 -0.05600754
-0.1436947 -0.06867215 0.07796683 -0.02533426 0.1510872 -0.0068871165 0.042677477 -0.076694235
-0.1823302 -0.058628097 0.034317303 0.15132041 -0.087908834 0.046423458 -0.17546722 0.25071478
-0.01658225 -0.045113724 -0.057898734 0.19713095 0.064682685 0.013048943 -0.2451448 -0.102940716
-0.0033800409 0.041171588 0.061348278 -0.07336529 0.1509806 0.033656538 -0.016935453 0.2711753
0.03183588 -0.0063993023 0.13274819 -0.11155319 -0.05403256 0.11041531 0.17299743 -0.073290296
-0.019373253 0.015427642 -0.10811427 -0.13809888 0.024741346 0.052881967 0.12258051 0.2097238
0.17757526 -0.08851517 -0.09965744 0.103008725 -0.14384733 0.050779123 -0.17002709 0.07139413
-0.030665841 -0.117018595 -0.15372506 0.2097347 -0.3148002 0.15405068 -0.14944929 0.026618809
-0.10744689 0.06949867 -0.04189623 -0.042804904 0.09514126 -0.006510564 -0.10370423 -0.087522775
-0.05260769 0.035866894 -0.030320087 0.24352783 -0.29766068 0.23705 -0.20771281 -0.19277497
0.014541426 -0.13018017 0.32092017 -0.09286582 -0.031965733 -0.19842838 -0.06727299 -0.08271743
0.09242754 0.0987832 0.079656295 0.08559235 -0.17158946 -0.06308588 -0.039600216 -0.13224511
0.124308795 -0.18930307 0.02926907 -0.22690392 -0.14696868 -0.24022187 -0.09488245 -0.15550555
0.1790259 0.20923164 0.20817955 -0.10293743 0.011673666 -0.0652311 -0.18289538 -0.016610814
0.1964235 0.2865013 -0.14584564 -0.077300936 0.09377994 -0.41702116 -0.026266597 -0.10423901
0.007911621 0.0498739 0.18556169 -0.12622368 -0.10577036 0.017698843 0.10450427 -0.14640118
-0.017531384 -0.15387328 0.06141623 0.34122393 -0.063363664 -0.15445748 0.07580193 0.14723955
-0.0026727864 -0.24290882 0.2083039 -0.017121408 0.17919351 -0.21868593 -0.08598488 -0.01082448
-0.03300917 0.059825253 -0.037136935 0.20156765 -0.021525236 -0.1365217 0.060576595 -0.07957066
0.19784945 -0.1007537 -0.05761872 0.21871552 0.048347868 0.011198332 0.13151471 0.010611593
0.121011265 0.03742684 0.068907864 -0.025285153 0.0015229585 0.015774585 0.108045295 -0.0044592684
0.049702052 0.23370345 -0.12223453 0.15818343 -0.22008248 0.1980099 -0.10026995 -0.15655595
0.031258527 0.16350764 0.006736162 -0.33776963 0.37492484 0.19383353 0.21875446 -0.1549817
-0.077015646 0.05714677 0.09753329 -0.027643412 -0.10398635 0.05878158 0.14846939 -0.05103897
0.07393112 0.05421035 0.2245129 -0.073250085 -0.06343045 -0.10443555 0.12572834 0.0015396773

conv2.bias f4 [2]
00000000: 3a06 b2bc 3a06 b23c
-0.021731485 0.021731485

conv2.lin.weight f4 [2, 64]
00000000: 79d6 41bd ca29 c13d 7335 91be ed49 a83e
00000010: 57fc 2b3e f827 7a3e dc7d 3a3e 30a2 b03d
00000020: 68ac 64bc 4c8d 873d 6b71 43be 3520 253e
00000030: c52d 4c3d abfb 98be 1c5e 403e b4e3 77be
00000040: 638c 193e 281d 9dbe 0b84 52be 844a b43d
00000050: a356 f03c c233 24be 92d5 9abd 6e67 743e
00000060: cdd6 fcbd bb08 643e 6fa7 58be 3e21 8b3e
00000070: 7ff3 563e 0c8e 0dbe 98fe 22bd 1104 673d
00000080: d287 bbbd 77cb 853e 2ae7 ba3d 97b7 4f3e
00000090: d0e0 4d3d e8e0 603e 4dce c0bd c8cd 47be
000000a0: 7e4c ffbd 5ba0 98bd 287e cb3a bccb bebe
000000b0: 76da 83be 7d4a 253d d32c 033e 8dce 0d3e
000000c0: b608 523e a9ec 35be 8449 733e f005 043d
000000d0: 0661 a13a 861b 863d 697c 07be fea4 79be
000000e0: b401 653e 5c9d 7cbd bb49 293e eabe a53d
000000f0: b1fa 02be c4d1 663e dba5 84be ab15 41be
00000100: 868c 76be b57a a73e 3697 df3d 85e6 093e
00000110: bd20 a5bd f751 c1bd ebdb c3bd 2e49 52be
00000120: 7ed6 86bd 4a18 8ebb de13 133e 1356 efbc
00000130: 3047 80be d15e 81be ff6c 9ebe ea45 703e
00000140: 608b 003e 6c6a 2bbe 3011 03bd 90e7 9e3e
00000150: 2734 8f3e 2949 5cbe 5ee5 0c3e a384 a23c
00000160: 1148 933e da01 86be 9b47 4a3c 93e2 1c3e
00000170: f8e2 1bbe d80a 96be b8a6 3c3e 7dc5 073e
00000180: 0d42 183e 15c1 e03d 439a a8bc 9a52 f0bd
00000190: 50db 66be 3188 bfbd 0ed5 003e 59c8 3fbd
000001a0: 31ea 45be 36cd c23d 14fd 563e 4b6f 22be
000001b0: 8a88 303c e1e7 b83e e635 c1bd 8bfe 0ebe
000001c0: 24b9 b63d 5dce 073e 0aab 6ebe e9d5 4cbd
000001d0: 8241 32be 9686 153b 2a4e d73d 3a65 643e
000001e0: 613d 643c c464 c73d 98a7 813c 5879 773e
000001f0: 1cb6 33be 43e1 10bd 2df6 e4bd 5069 eebd
-0.047323678 0.09431799 -0.2836109 0.328689 0.16795479 0.2442931 0.18212074 0.08624685
-0.0139571205 0.06618747 -0.19086234 0.16125567 0.049848337 -0.29879507 0.187859 -0.24207956
0.1499496 -0.30686307 -0.20558183 0.08803275 0.029338187 -0.16035369 -0.075602666 0.2386758
-0.123456575 0.22268955 -0.21157621 0.271738 0.20991324 -0.13823718 -0.03979358 0.056400362
-0.09156765 0.26131794 0.09126122 0.20284878 0.050263226 0.21960795 -0.09414349 -0.19512093
-0.124657616 -0.074524604 0.0015525268 -0.37264812 -0.2575261 0.04035424 0.12810068 0.13848324
0.20511135 -0.1776606 0.23758513 0.032232225 0.001231224 0.065482184 -0.13231052 -0.24379346
0.22363931 -0.061673507 0.16532032 0.080930546 -0.12790944 0.22540957 -0.25907788 -0.18855922
-0.24077043 0.32710806 0.10917513 0.13466842 -0.08062885 -0.09439462 -0.095634304 -0.20535728
-0.0658388 -0.0043363916 0.14363047 -0.029215848 -0.25054312 -0.25267652 -0.30942532 0.2346417
0.12553167 -0.16739815 -0.031998813 0.31036043 0.27969477 -0.21512283 0.13759372 0.019838637
0.2876592 -0.26173288 0.012346174 0.15320806 -0.152233 -0.29305148 0.18422973 0.1325893
0.14868946 0.109743275 -0.02058137 -0.11734505 -0.22544599 -0.09352148 0.12581274 -0.046821926
-0.19327618 0.09511797 0.20994979 -0.15862767 0.010774741 0.3611441 -0.094341084 -0.13964288
0.089220315 0.13262315 -0.23307434 -0.050008688 -0.17407802 0.0022815815 0.105129555 0.2230424
0.0139306495 0.097360164 0.015826985 0.24167383 -0.17549938 -0.035371076 -0.11179767 -0.116411805
